…
scripts/train.py --algo ppo --save-interval 10 --model simple_1_7_1_7 --lr 0.001 --procs 8

Namespace(algo='ppo', batch_size=256, clip_eps=0.2, discount=0.99, entropy_coef=0.01, env=None, epochs=4, frames=10000000, frames_per_proc=None, gae_lambda=0.95, log_interval=1, lr=0.001, max_grad_norm=0.5, mem=False, model='simple_1_7_1_7', optim_alpha=0.99, optim_eps=1e-08, procs=8, recurrence=1, save_interval=10, seed=1, text=False, value_loss_coef=0.5)

Device: cpu

Environments loaded

Training status loaded

Observations preprocessor loaded
Model loaded

ACModel(
  (image_conv): Sequential(
    (0): Conv2d(3, 16, kernel_size=(2, 2), stride=(1, 1))
    (1): ReLU()
    (2): MaxPool2d(kernel_size=(2, 2), stride=(2, 2), padding=0, dilation=1, ceil_mode=False)
    (3): Conv2d(16, 32, kernel_size=(2, 2), stride=(1, 1))
    (4): ReLU()
    (5): Conv2d(32, 64, kernel_size=(2, 2), stride=(1, 1))
    (6): ReLU()
  )
  (actor): Sequential(
    (0): Linear(in_features=72, out_features=64, bias=True)
    (1): Tanh()
    (2): Linear(in_features=64, out_features=7, bias=True)
  )
  (critic): Sequential(
    (0): Linear(in_features=72, out_features=64, bias=True)
    (1): Tanh()
    (2): Linear(in_features=64, out_features=1, bias=True)
  )
)

Optimizer loaded

U 1 | F 002048 | FPS 1787 | D 1 | rR:μσmM 0.00 0.00 0.00 0.00 | F:μσmM 0.0 0.0 0 0 | H 1.938 | V -0.121 | pL -0.018 | vL 0.002 | ∇ 0.029
U 2 | F 004096 | FPS 1879 | D 2 | rR:μσmM 0.00 0.00 0.00 0.00 | F:μσmM 0.0 0.0 0 0 | H 1.931 | V -0.104 | pL -0.018 | vL 0.000 | ∇ 0.022
U 3 | F 006144 | FPS 2112 | D 3 | rR:μσmM 0.02 0.06 0.00 0.22 | F:μσmM 320.5 10.7 281.0 324.0 | H 1.929 | V -0.068 | pL -0.027 | vL 0.001 | ∇ 0.019
…
/Users/ruoxili/Documents/NRL/rl-starter-files/scripts/train.py --algo ppo --save-interval 10 --model simple_1_7_1_7 --lr 0.001 --procs 8

Namespace(algo='ppo', batch_size=256, clip_eps=0.2, discount=0.99, entropy_coef=0.01, env=None, epochs=4, frames=10000000, frames_per_proc=None, gae_lambda=0.95, log_interval=1, lr=0.001, max_grad_norm=0.5, mem=False, model='simple_1_7_1_7', optim_alpha=0.99, optim_eps=1e-08, procs=8, recurrence=1, save_interval=10, seed=1, text=False, value_loss_coef=0.5)

Device: cpu

Environments loaded

Training status loaded

Observations preprocessor loaded
Model loaded

ACModel(
  (image_conv): Sequential(
    (0): Conv2d(3, 16, kernel_size=(2, 2), stride=(1, 1))
    (1): ReLU()
    (2): MaxPool2d(kernel_size=(2, 2), stride=(2, 2), padding=0, dilation=1, ceil_mode=False)
    (3): Conv2d(16, 32, kernel_size=(2, 2), stride=(1, 1))
    (4): ReLU()
    (5): Conv2d(32, 64, kernel_size=(2, 2), stride=(1, 1))
    (6): ReLU()
  )
  (actor): Sequential(
    (0): Linear(in_features=72, out_features=64, bias=True)
    (1): Tanh()
    (2): Linear(in_features=64, out_features=7, bias=True)
  )
  (critic): Sequential(
    (0): Linear(in_features=72, out_features=64, bias=True)
    (1): Tanh()
    (2): Linear(in_features=64, out_features=1, bias=True)
  )
)

Optimizer loaded

/Users/ruoxili/Documents/NRL/rl-starter-files/scripts/train.py --algo ppo --save-interval 10 --model simple_1_7_1_7 --lr 0.001 --procs 8 --spec 1 2 3 4

Namespace(algo='ppo', batch_size=256, clip_eps=0.2, discount=0.99, entropy_coef=0.01, env=None, epochs=4, frames=10000000, frames_per_proc=None, gae_lambda=0.95, log_interval=1, lr=0.001, max_grad_norm=0.5, mem=False, model='simple_1_7_1_7', optim_alpha=0.99, optim_eps=1e-08, procs=8, recurrence=1, save_interval=10, seed=1, spec=[1, 2, 3, 4], text=False, value_loss_coef=0.5)

Device: cpu

Environments loaded

Training status loaded

Observations preprocessor loaded
Model loaded

ACModel(
  (image_conv): Sequential(
    (0): Conv2d(3, 16, kernel_size=(2, 2), stride=(1, 1))
    (1): ReLU()
    (2): MaxPool2d(kernel_size=(2, 2), stride=(2, 2), padding=0, dilation=1, ceil_mode=False)
    (3): Conv2d(16, 32, kernel_size=(2, 2), stride=(1, 1))
    (4): ReLU()
    (5): Conv2d(32, 64, kernel_size=(2, 2), stride=(1, 1))
    (6): ReLU()
  )
  (actor): Sequential(
    (0): Linear(in_features=72, out_features=64, bias=True)
    (1): Tanh()
    (2): Linear(in_features=64, out_features=7, bias=True)
  )
  (critic): Sequential(
    (0): Linear(in_features=72, out_features=64, bias=True)
    (1): Tanh()
    (2): Linear(in_features=64, out_features=1, bias=True)
  )
)

Optimizer loaded

U 51 | F 104448 | FPS 1213 | D 1 | rR:μσmM 0.93 0.01 0.90 0.96 | F:μσmM 24.4 4.8 14.0 37.0 | H 1.422 | V 0.820 | pL 0.003 | vL 0.001 | ∇ 0.025
U 52 | F 106496 | FPS 1412 | D 3 | rR:μσmM 0.93 0.02 0.86 0.96 | F:μσmM 25.6 6.0 15.0 49.0 | H 1.439 | V 0.820 | pL 0.004 | vL 0.001 | ∇ 0.018
U 53 | F 108544 | FPS 1320 | D 4 | rR:μσmM 0.92 0.02 0.85 0.95 | F:μσmM 28.3 7.9 17.0 53.0 | H 1.407 | V 0.805 | pL 0.015 | vL 0.001 | ∇ 0.023
…
