…
py --algo ppo --save-interval 10 --model simple31_set_openning --lr 0.001 --procs 8

Namespace(algo='ppo', batch_size=256, clip_eps=0.2, discount=0.99, entropy_coef=0.01, env=None, epochs=4, frames=10000000, frames_per_proc=None, gae_lambda=0.95, log_interval=1, lr=0.001, max_grad_norm=0.5, mem=False, model='simple31_set_openning', optim_alpha=0.99, optim_eps=1e-08, procs=8, recurrence=1, save_interval=10, seed=1, text=False, value_loss_coef=0.5)

Device: cpu

Environments loaded

Training status loaded

Observations preprocessor loaded
Model loaded

ACModel(
  (image_conv): Sequential(
    (0): Conv2d(3, 16, kernel_size=(2, 2), stride=(1, 1))
    (1): ReLU()
    (2): MaxPool2d(kernel_size=(2, 2), stride=(2, 2), padding=0, dilation=1, ceil_mode=False)
    (3): Conv2d(16, 32, kernel_size=(2, 2), stride=(1, 1))
    (4): ReLU()
    (5): Conv2d(32, 64, kernel_size=(2, 2), stride=(1, 1))
    (6): ReLU()
  )
  (actor): Sequential(
    (0): Linear(in_features=64, out_features=64, bias=True)
    (1): Tanh()
    (2): Linear(in_features=64, out_features=7, bias=True)
  )
  (critic): Sequential(
    (0): Linear(in_features=64, out_features=64, bias=True)
    (1): Tanh()
    (2): Linear(in_features=64, out_features=1, bias=True)
  )
)

Optimizer loaded

U 1 | F 002048 | FPS 1132 | D 1 | rR:μσmM 0.00 0.00 0.00 0.00 | F:μσmM 0.0 0.0 0 0 | H 1.926 | V -0.116 | pL -0.017 | vL 0.001 | ∇ 0.034
U 2 | F 004096 | FPS 1650 | D 3 | rR:μσmM 0.00 0.00 0.00 0.00 | F:μσmM 0.0 0.0 0 0 | H 1.932 | V -0.085 | pL -0.017 | vL 0.000 | ∇ 0.010
U 3 | F 006144 | FPS 1768 | D 4 | rR:μσmM 0.01 0.06 0.00 0.23 | F:μσmM 321.1 11.1 278.0 324.0 | H 1.937 | V -0.061 | pL -0.024 | vL 0.001 | ∇ 0.011
…
/Users/ruoxili/Documents/NRL/rl-starter-files/scripts/train.py --algo ppo --save-interval 10 --model simple31_set_openning --lr 0.001 --procs 8

Namespace(algo='ppo', batch_size=256, clip_eps=0.2, discount=0.99, entropy_coef=0.01, env=None, epochs=4, frames=10000000, frames_per_proc=None, gae_lambda=0.95, log_interval=1, lr=0.001, max_grad_norm=0.5, mem=False, model='simple31_set_openning', optim_alpha=0.99, optim_eps=1e-08, procs=8, recurrence=1, save_interval=10, seed=1, text=False, value_loss_coef=0.5)

Device: cpu

Environments loaded

Training status loaded

Observations preprocessor loaded
Model loaded

ACModel(
  (image_conv): Sequential(
    (0): Conv2d(3, 16, kernel_size=(2, 2), stride=(1, 1))
    (1): ReLU()
    (2): MaxPool2d(kernel_size=(2, 2), stride=(2, 2), padding=0, dilation=1, ceil_mode=False)
    (3): Conv2d(16, 32, kernel_size=(2, 2), stride=(1, 1))
    (4): ReLU()
    (5): Conv2d(32, 64, kernel_size=(2, 2), stride=(1, 1))
    (6): ReLU()
  )
  (actor): Sequential(
    (0): Linear(in_features=64, out_features=64, bias=True)
    (1): Tanh()
    (2): Linear(in_features=64, out_features=7, bias=True)
  )
  (critic): Sequential(
    (0): Linear(in_features=64, out_features=64, bias=True)
    (1): Tanh()
    (2): Linear(in_features=64, out_features=1, bias=True)
  )
)

Optimizer loaded

/Users/ruoxili/Documents/NRL/rl-starter-files/scripts/train.py --algo ppo --save-interval 10 --model simple31_set_openning --lr 0.001 --procs 8

Namespace(algo='ppo', batch_size=256, clip_eps=0.2, discount=0.99, entropy_coef=0.01, env=None, epochs=4, frames=10000000, frames_per_proc=None, gae_lambda=0.95, log_interval=1, lr=0.001, max_grad_norm=0.5, mem=False, model='simple31_set_openning', optim_alpha=0.99, optim_eps=1e-08, procs=8, recurrence=1, save_interval=10, seed=1, text=False, value_loss_coef=0.5)

Device: cpu

Environments loaded

Training status loaded

Observations preprocessor loaded
Model loaded

ACModel(
  (image_conv): Sequential(
    (0): Conv2d(3, 16, kernel_size=(2, 2), stride=(1, 1))
    (1): ReLU()
    (2): MaxPool2d(kernel_size=(2, 2), stride=(2, 2), padding=0, dilation=1, ceil_mode=False)
    (3): Conv2d(16, 32, kernel_size=(2, 2), stride=(1, 1))
    (4): ReLU()
    (5): Conv2d(32, 64, kernel_size=(2, 2), stride=(1, 1))
    (6): ReLU()
  )
  (actor): Sequential(
    (0): Linear(in_features=64, out_features=64, bias=True)
    (1): Tanh()
    (2): Linear(in_features=64, out_features=7, bias=True)
  )
  (critic): Sequential(
    (0): Linear(in_features=64, out_features=64, bias=True)
    (1): Tanh()
    (2): Linear(in_features=64, out_features=1, bias=True)
  )
)

Optimizer loaded

U 141 | F 288768 | FPS 1419 | D 1 | rR:μσmM 0.04 0.17 0.00 0.69 | F:μσmM 7.0 27.1 0.0 112.0 | H 1.770 | V 0.209 | pL 0.047 | vL 0.004 | ∇ 0.086
U 142 | F 290816 | FPS 1888 | D 2 | rR:μσmM 0.24 0.30 0.00 0.88 | F:μσmM 69.5 88.5 0.0 237.0 | H 1.761 | V 0.223 | pL 0.025 | vL 0.005 | ∇ 0.042
U 143 | F 292864 | FPS 1713 | D 3 | rR:μσmM 0.20 0.28 0.00 0.88 | F:μσmM 265.0 85.3 42.0 324.0 | H 1.776 | V 0.177 | pL 0.042 | vL 0.002 | ∇ 0.032
…
