…
WG              WG
WG              WG
WGWGWG  WGWGWGWGWG
WG              WG
WG              WG
WG            GGWG
WGWGWGWGWGWGWGWGWG
WGWGWGWGWGWGWGWGWG
WG>>            WG
WG  WG          WG
WG  WG          WG
WG  WG          WG
WG  WG          WG
WG  WG          WG
WG  WG        GGWG
WGWGWGWGWGWGWGWGWG
WGWGWGWGWGWGWGWGWG
WG>>            WG
WG              WG
WG              WG
WGWGWGWGWG  WGWGWG
WG              WG
WG              WG
WG            GGWG
WGWGWGWGWGWGWGWGWG
Environments loaded

Training status loaded

Observations preprocessor loaded
Model loaded

ACModel(
  (image_conv): Sequential(
    (0): Conv2d(3, 4, kernel_size=(2, 2), stride=(1, 1))
    (1): ReLU()
    (2): MaxPool2d(kernel_size=(2, 2), stride=(2, 2), padding=0, dilation=1, ceil_mode=False)
    (3): Conv2d(4, 8, kernel_size=(2, 2), stride=(1, 1))
    (4): ReLU()
    (5): Conv2d(8, 16, kernel_size=(2, 2), stride=(1, 1))
    (6): ReLU()
  )
  (actor): Sequential(
    (0): Linear(in_features=17, out_features=16, bias=True)
    (1): Tanh()
    (2): Linear(in_features=16, out_features=7, bias=True)
  )
  (critic): Sequential(
    (0): Linear(in_features=17, out_features=16, bias=True)
    (1): Tanh()
    (2): Linear(in_features=16, out_features=1, bias=True)
  )
)

-m --algo ppo --save-interval 10 --lr 0.001 --procs 8 --spec 1 0 4

-m --algo ppo --save-interval 10 --lr 0.001 --procs 8 --spec 1 0 4

Namespace(algo='ppo', batch_size=256, clip_eps=0.2, discount=0.99, entropy_coef=0.01, env=None, epochs=4, frames=10000000, frames_per_proc=None, gae_lambda=0.95, log_interval=1, lr=0.001, max_grad_norm=0.5, mem=False, model=None, optim_alpha=0.99, optim_eps=1e-08, procs=8, recurrence=1, save_interval=10, seed=133673, spec=[1, 0, 4], text=False, value_loss_coef=0.5)
…
WG      WG    GGWG
WGWGWGWGWGWGWGWGWG
WGWGWGWGWGWGWGWGWG
WG>>            WG
WG              WG
WG              WG
WG              WG
WG              WG
WG  WGWGWGWGWGWGWG
WG            GGWG
WGWGWGWGWGWGWGWGWG
WGWGWGWGWGWGWGWGWG
WG>>            WG
WG              WG
WG              WG
WG  WGWGWGWGWGWGWG
WG              WG
WG              WG
WG            GGWG
WGWGWGWGWGWGWGWGWG
Environments loaded

Environments loaded

Training status loaded

Training status loaded

Observations preprocessor loaded
Observations preprocessor loaded
Model loaded

Model loaded

ACModel(
  (image_conv): Sequential(
    (0): Conv2d(3, 4, kernel_size=(2, 2), stride=(1, 1))
    (1): ReLU()
    (2): MaxPool2d(kernel_size=(2, 2), stride=(2, 2), padding=0, dilation=1, ceil_mode=False)
    (3): Conv2d(4, 8, kernel_size=(2, 2), stride=(1, 1))
    (4): ReLU()
    (5): Conv2d(8, 16, kernel_size=(2, 2), stride=(1, 1))
    (6): ReLU()
  )
  (actor): Sequential(
    (0): Linear(in_features=17, out_features=16, bias=True)
    (1): Tanh()
    (2): Linear(in_features=16, out_features=7, bias=True)
  )
  (critic): Sequential(
    (0): Linear(in_features=17, out_features=16, bias=True)
    (1): Tanh()
    (2): Linear(in_features=16, out_features=1, bias=True)
  )
)

ACModel(
  (image_conv): Sequential(
    (0): Conv2d(3, 4, kernel_size=(2, 2), stride=(1, 1))
    (1): ReLU()
    (2): MaxPool2d(kernel_size=(2, 2), stride=(2, 2), padding=0, dilation=1, ceil_mode=False)
    (3): Conv2d(4, 8, kernel_size=(2, 2), stride=(1, 1))
    (4): ReLU()
    (5): Conv2d(8, 16, kernel_size=(2, 2), stride=(1, 1))
    (6): ReLU()
  )
  (actor): Sequential(
    (0): Linear(in_features=17, out_features=16, bias=True)
    (1): Tanh()
    (2): Linear(in_features=16, out_features=7, bias=True)
  )
  (critic): Sequential(
    (0): Linear(in_features=17, out_features=16, bias=True)
    (1): Tanh()
    (2): Linear(in_features=16, out_features=1, bias=True)
  )
)

Optimizer loaded

Optimizer loaded

U 1 | F 002048 | FPS 0785 | D 2 | rR:μσmM 0.00 0.00 0.00 0.00 | F:μσmM 0.0 0.0 0 0 | H 1.933 | V 0.118 | pL 0.020 | vL 0.000 | ∇ 0.006
U 1 | F 002048 | FPS 0728 | D 2 | rR:μσmM 0.10 0.26 0.00 0.84 | F:μσmM 9.1 24.9 0.0 90.0 | H 1.917 | V -0.202 | pL -0.056 | vL 0.009 | ∇ 0.031
U 1 | F 002048 | FPS 0719 | D 2 | rR:μσmM 0.00 0.00 0.00 0.00 | F:μσmM 0.0 0.0 0 0 | H 1.927 | V 0.068 | pL 0.011 | vL 0.000 | ∇ 0.005
…
