…
WG              WG
WG            GGWG
WGWGWGWGWGWGWGWGWG
WGWGWGWGWGWGWGWGWG
WG>>    WG      WG
WG      WG      WG
WG              WG
WG      WG      WG
WG      WG      WG
WG      WG      WG
WG      WG    GGWG
WGWGWGWGWGWGWGWGWG
Environments loaded

Training status loaded

Observations preprocessor loaded
WGWGWGWGWGWGWGWGWG
WG>>            WG
WG              WG
WG              WG
WGWGWGWGWG  WGWGWG
WG              WG
WG              WG
WG            GGWG
WGWGWGWGWGWGWGWGWG
Environments loaded

Training status loaded

Observations preprocessor loaded
Model loaded

ACModel(
  (image_conv): Sequential(
    (0): Conv2d(3, 15, kernel_size=(2, 2), stride=(1, 1))
    (1): ReLU()
    (2): MaxPool2d(kernel_size=(2, 2), stride=(2, 2), padding=0, dilation=1, ceil_mode=False)
    (3): Conv2d(15, 30, kernel_size=(2, 2), stride=(1, 1))
    (4): ReLU()
    (5): Conv2d(30, 60, kernel_size=(2, 2), stride=(1, 1))
    (6): ReLU()
  )
  (actor): Sequential(
    (0): Linear(in_features=61, out_features=60, bias=True)
    (1): Tanh()
    (2): Linear(in_features=60, out_features=7, bias=True)
  )
  (critic): Sequential(
    (0): Linear(in_features=61, out_features=60, bias=True)
    (1): Tanh()
    (2): Linear(in_features=60, out_features=1, bias=True)
  )
)

Model loaded

ACModel(
  (image_conv): Sequential(
    (0): Conv2d(3, 15, kernel_size=(2, 2), stride=(1, 1))
    (1): ReLU()
    (2): MaxPool2d(kernel_size=(2, 2), stride=(2, 2), padding=0, dilation=1, ceil_mode=False)
    (3): Conv2d(15, 30, kernel_size=(2, 2), stride=(1, 1))
    (4): ReLU()
    (5): Conv2d(30, 60, kernel_size=(2, 2), stride=(1, 1))
    (6): ReLU()
  )
  (actor): Sequential(
    (0): Linear(in_features=61, out_features=60, bias=True)
    (1): Tanh()
    (2): Linear(in_features=60, out_features=7, bias=True)
  )
  (critic): Sequential(
    (0): Linear(in_features=61, out_features=60, bias=True)
    (1): Tanh()
    (2): Linear(in_features=60, out_features=1, bias=True)
  )
)

Optimizer loaded

Optimizer loaded

U 1 | F 002048 | FPS 0665 | D 3 | rR:μσmM 0.00 0.00 0.00 0.00 | F:μσmM 0.0 0.0 0 0 | H 1.939 | V 0.051 | pL 0.005 | vL 0.001 | ∇ 0.022
U 1 | F 002048 | FPS 0660 | D 3 | rR:μσmM 0.00 0.00 0.00 0.00 | F:μσmM 0.0 0.0 0 0 | H 1.938 | V 0.086 | pL 0.015 | vL 0.000 | ∇ 0.024
U 2 | F 004096 | FPS 0663 | D 6 | rR:μσmM 0.00 0.00 0.00 0.00 | F:μσmM 0.0 0.0 0 0 | H 1.935 | V 0.058 | pL 0.011 | vL 0.000 | ∇ 0.009
…
