…
WG              WG
WG  WG          WG
WG  WG          WG
WG  WG          WG
WG  WG        GGWG
WGWGWGWGWGWGWGWGWG
WGWGWGWGWGWGWGWGWG
WG>>            WG
WG              WG
WG              WG
WGWGWGWGWGWGWG  WG
WG              WG
WG              WG
WG            GGWG
WGWGWGWGWGWGWGWGWG
Environments loaded

Training status loaded

Observations preprocessor loaded
WGWGWGWGWGWGWGWGWG
WG>>            WG
WG              WG
WG              WG
WG              WG
WG              WG
WGWGWG  WGWGWGWGWG
WG            GGWG
WGWGWGWGWGWGWGWGWG
Environments loaded

Model loaded

ACModel(
  (image_conv): Sequential(
    (0): Conv2d(3, 4, kernel_size=(2, 2), stride=(1, 1))
    (1): ReLU()
    (2): MaxPool2d(kernel_size=(2, 2), stride=(2, 2), padding=0, dilation=1, ceil_mode=False)
    (3): Conv2d(4, 8, kernel_size=(2, 2), stride=(1, 1))
    (4): ReLU()
    (5): Conv2d(8, 16, kernel_size=(2, 2), stride=(1, 1))
    (6): ReLU()
  )
  (actor): Sequential(
    (0): Linear(in_features=17, out_features=16, bias=True)
    (1): Tanh()
    (2): Linear(in_features=16, out_features=7, bias=True)
  )
  (critic): Sequential(
    (0): Linear(in_features=17, out_features=16, bias=True)
    (1): Tanh()
    (2): Linear(in_features=16, out_features=1, bias=True)
  )
)

Training status loaded

Observations preprocessor loaded
Model loaded

ACModel(
  (image_conv): Sequential(
    (0): Conv2d(3, 4, kernel_size=(2, 2), stride=(1, 1))
    (1): ReLU()
    (2): MaxPool2d(kernel_size=(2, 2), stride=(2, 2), padding=0, dilation=1, ceil_mode=False)
    (3): Conv2d(4, 8, kernel_size=(2, 2), stride=(1, 1))
    (4): ReLU()
    (5): Conv2d(8, 16, kernel_size=(2, 2), stride=(1, 1))
    (6): ReLU()
  )
  (actor): Sequential(
    (0): Linear(in_features=17, out_features=16, bias=True)
    (1): Tanh()
    (2): Linear(in_features=16, out_features=7, bias=True)
  )
  (critic): Sequential(
    (0): Linear(in_features=17, out_features=16, bias=True)
    (1): Tanh()
    (2): Linear(in_features=16, out_features=1, bias=True)
  )
)

Optimizer loaded

Optimizer loaded

U 1 | F 002048 | FPS 0732 | D 2 | rR:μσmM 0.00 0.00 0.00 0.00 | F:μσmM 0.0 0.0 0 0 | H 1.936 | V 0.200 | pL 0.035 | vL 0.002 | ∇ 0.013
U 1 | F 002048 | FPS 0727 | D 2 | rR:μσmM 0.00 0.00 0.00 0.00 | F:μσmM 0.0 0.0 0 0 | H 1.933 | V -0.012 | pL -0.003 | vL 0.000 | ∇ 0.004
U 2 | F 004096 | FPS 0729 | D 5 | rR:μσmM 0.00 0.00 0.00 0.00 | F:μσmM 0.0 0.0 0 0 | H 1.935 | V 0.168 | pL 0.031 | vL 0.000 | ∇ 0.010
…
