…
WGWGWGWGWGWG  WGWG
WG              WG
WG              WG
WG              WG
WG              WG
WG            GGWG
WGWGWGWGWGWGWGWGWG
WGWGWGWGWGWGWGWGWG
WG>>        WG  WG
WG          WG  WG
WG          WG  WG
WG          WG  WG
WG          WG  WG
WG              WG
WG          WGGGWG
WGWGWGWGWGWGWGWGWG
WGWGWGWGWGWGWGWGWG
WG>>            WG
WG              WG
WG              WG
WGWGWGWGWG  WGWGWG
WG              WG
WG              WG
WG            GGWG
WGWGWGWGWGWGWGWGWG
Environments loaded

Training status loaded

Observations preprocessor loaded
Model loaded

ACModel(
  (image_conv): Sequential(
    (0): Conv2d(3, 15, kernel_size=(2, 2), stride=(1, 1))
    (1): ReLU()
    (2): MaxPool2d(kernel_size=(2, 2), stride=(2, 2), padding=0, dilation=1, ceil_mode=False)
    (3): Conv2d(15, 30, kernel_size=(2, 2), stride=(1, 1))
    (4): ReLU()
    (5): Conv2d(30, 60, kernel_size=(2, 2), stride=(1, 1))
    (6): ReLU()
  )
  (actor): Sequential(
    (0): Linear(in_features=61, out_features=60, bias=True)
    (1): Tanh()
    (2): Linear(in_features=60, out_features=7, bias=True)
  )
  (critic): Sequential(
    (0): Linear(in_features=61, out_features=60, bias=True)
    (1): Tanh()
    (2): Linear(in_features=60, out_features=1, bias=True)
  )
)

Optimizer loaded

-m --algo ppo --save-interval 10 --lr 0.001 --procs 8 --spec 1 0 15

-m --algo ppo --save-interval 10 --lr 0.001 --procs 8 --spec 1 0 15

Namespace(algo='ppo', batch_size=256, clip_eps=0.2, discount=0.99, entropy_coef=0.01, env=None, epochs=4, frames=10000000, frames_per_proc=None, gae_lambda=0.95, log_interval=1, lr=0.001, max_grad_norm=0.5, mem=False, model=None, optim_alpha=0.99, optim_eps=1e-08, procs=8, recurrence=1, save_interval=10, seed=487780, spec=[1, 0, 15], text=False, value_loss_coef=0.5)
…
WG              WG
WGWGWG  WGWGWGWGWG
WG              WG
WG              WG
WG            GGWG
WGWGWGWGWGWGWGWGWG
Environments loaded

Training status loaded

Observations preprocessor loaded
WGWGWGWGWGWGWGWGWG
WG>>            WG
WG          WG  WG
WG          WG  WG
WG          WG  WG
WG          WG  WG
WG          WG  WG
WG          WGGGWG
WGWGWGWGWGWGWGWGWG
WGWGWGWGWGWGWGWGWG
WG>>            WG
WG              WG
WG              WG
WG              WG
WG              WG
WGWGWG  WGWGWGWGWG
WG            GGWG
WGWGWGWGWGWGWGWGWG
Environments loaded

Model loaded

ACModel(
  (image_conv): Sequential(
    (0): Conv2d(3, 15, kernel_size=(2, 2), stride=(1, 1))
    (1): ReLU()
    (2): MaxPool2d(kernel_size=(2, 2), stride=(2, 2), padding=0, dilation=1, ceil_mode=False)
    (3): Conv2d(15, 30, kernel_size=(2, 2), stride=(1, 1))
    (4): ReLU()
    (5): Conv2d(30, 60, kernel_size=(2, 2), stride=(1, 1))
    (6): ReLU()
  )
  (actor): Sequential(
    (0): Linear(in_features=61, out_features=60, bias=True)
    (1): Tanh()
    (2): Linear(in_features=60, out_features=7, bias=True)
  )
  (critic): Sequential(
    (0): Linear(in_features=61, out_features=60, bias=True)
    (1): Tanh()
    (2): Linear(in_features=60, out_features=1, bias=True)
  )
)

Training status loaded

Observations preprocessor loaded
Model loaded

ACModel(
  (image_conv): Sequential(
    (0): Conv2d(3, 15, kernel_size=(2, 2), stride=(1, 1))
    (1): ReLU()
    (2): MaxPool2d(kernel_size=(2, 2), stride=(2, 2), padding=0, dilation=1, ceil_mode=False)
    (3): Conv2d(15, 30, kernel_size=(2, 2), stride=(1, 1))
    (4): ReLU()
    (5): Conv2d(30, 60, kernel_size=(2, 2), stride=(1, 1))
    (6): ReLU()
  )
  (actor): Sequential(
    (0): Linear(in_features=61, out_features=60, bias=True)
    (1): Tanh()
    (2): Linear(in_features=60, out_features=7, bias=True)
  )
  (critic): Sequential(
    (0): Linear(in_features=61, out_features=60, bias=True)
    (1): Tanh()
    (2): Linear(in_features=60, out_features=1, bias=True)
  )
)

Optimizer loaded

Optimizer loaded

U 1 | F 002048 | FPS 0672 | D 3 | rR:μσmM 0.00 0.00 0.00 0.00 | F:μσmM 0.0 0.0 0 0 | H 1.919 | V -0.187 | pL -0.030 | vL 0.001 | ∇ 0.046
U 1 | F 002048 | FPS 0672 | D 3 | rR:μσmM 0.00 0.00 0.00 0.00 | F:μσmM 0.0 0.0 0 0 | H 1.941 | V -0.046 | pL -0.011 | vL 0.001 | ∇ 0.020
U 1 | F 002048 | FPS 0657 | D 3 | rR:μσmM 0.00 0.00 0.00 0.00 | F:μσmM 0.0 0.0 0 0 | H 1.937 | V 0.008 | pL 0.001 | vL 0.000 | ∇ 0.009
…
