…
WGWGWGWGWGWGWGWGWG
WG>>            WG
WGWGWGWGWG  WGWGWG
WG              WG
WG              WG
WG              WG
WG              WG
WG            GGWG
WGWGWGWGWGWGWGWGWG
WGWGWGWGWGWGWGWGWG
WG>>        WG  WG
WG          WG  WG
WG          WG  WG
WG          WG  WG
WG              WG
WG          WG  WG
WG          WGGGWG
WGWGWGWGWGWGWGWGWG
WGWGWGWGWGWGWGWGWG
WG>>            WG
WGWGWGWG  WGWGWGWG
WG              WG
WG              WG
WG              WG
WG              WG
WG            GGWG
WGWGWGWGWGWGWGWGWG
Environments loaded

Model loaded

Training status loaded

ACModel(
  (image_conv): Sequential(
    (0): Conv2d(3, 3, kernel_size=(2, 2), stride=(1, 1))
    (1): ReLU()
    (2): MaxPool2d(kernel_size=(2, 2), stride=(2, 2), padding=0, dilation=1, ceil_mode=False)
    (3): Conv2d(3, 6, kernel_size=(2, 2), stride=(1, 1))
    (4): ReLU()
    (5): Conv2d(6, 12, kernel_size=(2, 2), stride=(1, 1))
    (6): ReLU()
  )
  (actor): Sequential(
    (0): Linear(in_features=13, out_features=12, bias=True)
    (1): Tanh()
    (2): Linear(in_features=12, out_features=7, bias=True)
  )
  (critic): Sequential(
    (0): Linear(in_features=13, out_features=12, bias=True)
    (1): Tanh()
    (2): Linear(in_features=12, out_features=1, bias=True)
  )
)

Observations preprocessor loaded
Model loaded

ACModel(
  (image_conv): Sequential(
    (0): Conv2d(3, 3, kernel_size=(2, 2), stride=(1, 1))
    (1): ReLU()
    (2): MaxPool2d(kernel_size=(2, 2), stride=(2, 2), padding=0, dilation=1, ceil_mode=False)
    (3): Conv2d(3, 6, kernel_size=(2, 2), stride=(1, 1))
    (4): ReLU()
    (5): Conv2d(6, 12, kernel_size=(2, 2), stride=(1, 1))
    (6): ReLU()
  )
  (actor): Sequential(
    (0): Linear(in_features=13, out_features=12, bias=True)
    (1): Tanh()
    (2): Linear(in_features=12, out_features=7, bias=True)
  )
  (critic): Sequential(
    (0): Linear(in_features=13, out_features=12, bias=True)
    (1): Tanh()
    (2): Linear(in_features=12, out_features=1, bias=True)
  )
)

Optimizer loaded

Optimizer loaded

U 1 | F 002048 | FPS 0743 | D 2 | rR:μσmM 0.00 0.00 0.00 0.00 | F:μσmM 0.0 0.0 0 0 | H 1.938 | V -0.058 | pL -0.011 | vL 0.000 | ∇ 0.003
U 1 | F 002048 | FPS 0732 | D 2 | rR:μσmM 0.00 0.00 0.00 0.00 | F:μσmM 0.0 0.0 0 0 | H 1.930 | V 0.233 | pL 0.044 | vL 0.001 | ∇ 0.012
U 2 | F 004096 | FPS 0731 | D 5 | rR:μσmM 0.05 0.15 0.00 0.47 | F:μσmM 25.2 66.9 0.0 213.0 | H 1.941 | V -0.042 | pL -0.017 | vL 0.002 | ∇ 0.007
…
