…
WG  WG        GGWG
WGWGWGWGWGWGWGWGWG
WGWGWGWGWGWGWGWGWG
WG>>            WG
WGWGWG  WGWGWGWGWG
WG              WG
WG              WG
WG              WG
WG              WG
WG            GGWG
WGWGWGWGWGWGWGWGWG
WGWGWGWGWGWGWGWGWG
WG>>            WG
WG  WG          WG
WG  WG          WG
WG  WG          WG
WG  WG          WG
WG  WG          WG
WG  WG        GGWG
WGWGWGWGWGWGWGWGWG
WGWGWGWGWGWGWGWGWG
WG>>            WG
WG              WG
WG              WG
WG              WG
WG              WG
WGWG  WGWGWGWGWGWG
WG            GGWG
WGWGWGWGWGWGWGWGWG
Model loaded

ACModel(
  (image_conv): Sequential(
    (0): Conv2d(3, 30, kernel_size=(2, 2), stride=(1, 1))
    (1): ReLU()
    (2): MaxPool2d(kernel_size=(2, 2), stride=(2, 2), padding=0, dilation=1, ceil_mode=False)
    (3): Conv2d(30, 60, kernel_size=(2, 2), stride=(1, 1))
    (4): ReLU()
    (5): Conv2d(60, 120, kernel_size=(2, 2), stride=(1, 1))
    (6): ReLU()
  )
  (actor): Sequential(
    (0): Linear(in_features=121, out_features=120, bias=True)
    (1): Tanh()
    (2): Linear(in_features=120, out_features=7, bias=True)
  )
  (critic): Sequential(
    (0): Linear(in_features=121, out_features=120, bias=True)
    (1): Tanh()
    (2): Linear(in_features=120, out_features=1, bias=True)
  )
)

WGWGWGWGWGWGWGWGWG
WG>>        WG  WG
WG              WG
WG          WG  WG
WG          WG  WG
WG          WG  WG
WG          WG  WG
WG          WGGGWG
WGWGWGWGWGWGWGWGWG
WGWGWGWGWGWGWGWGWG
WG>>            WG
WG  WGWGWGWGWGWGWG
WG              WG
WG              WG
WG              WG
WG              WG
WG            GGWG
WGWGWGWGWGWGWGWGWG
Environments loaded

Training status loaded

Observations preprocessor loaded
Model loaded

ACModel(
  (image_conv): Sequential(
    (0): Conv2d(3, 30, kernel_size=(2, 2), stride=(1, 1))
    (1): ReLU()
    (2): MaxPool2d(kernel_size=(2, 2), stride=(2, 2), padding=0, dilation=1, ceil_mode=False)
    (3): Conv2d(30, 60, kernel_size=(2, 2), stride=(1, 1))
    (4): ReLU()
    (5): Conv2d(60, 120, kernel_size=(2, 2), stride=(1, 1))
    (6): ReLU()
  )
  (actor): Sequential(
    (0): Linear(in_features=121, out_features=120, bias=True)
    (1): Tanh()
    (2): Linear(in_features=120, out_features=7, bias=True)
  )
  (critic): Sequential(
    (0): Linear(in_features=121, out_features=120, bias=True)
    (1): Tanh()
    (2): Linear(in_features=120, out_features=1, bias=True)
  )
)

Optimizer loaded

Optimizer loaded

U 1 | F 002048 | FPS 0561 | D 3 | rR:μσmM 0.00 0.00 0.00 0.00 | F:μσmM 0.0 0.0 0 0 | H 1.934 | V 0.067 | pL 0.008 | vL 0.000 | ∇ 0.020
U 1 | F 002048 | FPS 0561 | D 3 | rR:μσmM 0.00 0.00 0.00 0.00 | F:μσmM 0.0 0.0 0 0 | H 1.926 | V -0.163 | pL -0.025 | vL 0.001 | ∇ 0.026
U 2 | F 004096 | FPS 0559 | D 7 | rR:μσmM 0.00 0.00 0.00 0.00 | F:μσmM 0.0 0.0 0 0 | H 1.942 | V 0.047 | pL 0.008 | vL 0.000 | ∇ 0.004
…
