…
WG              WG
WG              WG
WGWGWGWGWGWGWG  WG
WG              WG
WG              WG
WG            GGWG
WGWGWGWGWGWGWGWGWG
WGWGWGWGWGWGWGWGWG
WG>>    WG      WG
WG      WG      WG
WG      WG      WG
WG      WG      WG
WG      WG      WG
WG      WG      WG
WG            GGWG
WGWGWGWGWGWGWGWGWG
WGWGWGWGWGWGWGWGWG
WG>>            WG
WGWGWG  WGWGWGWGWG
WG              WG
WG              WG
WG              WG
WG              WG
WG            GGWG
WGWGWGWGWGWGWGWGWG
Environments loaded

Training status loaded

Observations preprocessor loaded
Model loaded

ACModel(
  (image_conv): Sequential(
    (0): Conv2d(3, 6, kernel_size=(2, 2), stride=(1, 1))
    (1): ReLU()
    (2): MaxPool2d(kernel_size=(2, 2), stride=(2, 2), padding=0, dilation=1, ceil_mode=False)
    (3): Conv2d(6, 12, kernel_size=(2, 2), stride=(1, 1))
    (4): ReLU()
    (5): Conv2d(12, 24, kernel_size=(2, 2), stride=(1, 1))
    (6): ReLU()
  )
  (actor): Sequential(
    (0): Linear(in_features=25, out_features=24, bias=True)
    (1): Tanh()
    (2): Linear(in_features=24, out_features=7, bias=True)
  )
  (critic): Sequential(
    (0): Linear(in_features=25, out_features=24, bias=True)
    (1): Tanh()
    (2): Linear(in_features=24, out_features=1, bias=True)
  )
)

-m --algo ppo --save-interval 10 --lr 0.001 --procs 8 --spec 1 0 6

-m --algo ppo --save-interval 10 --lr 0.001 --procs 8 --spec 1 0 6

Namespace(algo='ppo', batch_size=256, clip_eps=0.2, discount=0.99, entropy_coef=0.01, env=None, epochs=4, frames=10000000, frames_per_proc=None, gae_lambda=0.95, log_interval=1, lr=0.001, max_grad_norm=0.5, mem=False, model=None, optim_alpha=0.99, optim_eps=1e-08, procs=8, recurrence=1, save_interval=10, seed=62200, spec=[1, 0, 6], text=False, value_loss_coef=0.5)
…
WG  WG        GGWG
WGWGWGWGWGWGWGWGWG
WGWGWGWGWGWGWGWGWG
WG>>            WG
WGWGWGWGWG  WGWGWG
WG              WG
WG              WG
WG              WG
WG              WG
WG            GGWG
WGWGWGWGWGWGWGWGWG
Environments loaded

WGWGWGWGWGWGWGWGWG
WG>>            WG
WG              WG
WG              WG
WG              WG
WG              WG
WG  WGWGWGWGWGWGWG
WG            GGWG
WGWGWGWGWGWGWGWGWG
Environments loaded

Training status loaded

Training status loaded

Observations preprocessor loaded
Observations preprocessor loaded
Model loaded

Model loaded

ACModel(
  (image_conv): Sequential(
    (0): Conv2d(3, 6, kernel_size=(2, 2), stride=(1, 1))
    (1): ReLU()
    (2): MaxPool2d(kernel_size=(2, 2), stride=(2, 2), padding=0, dilation=1, ceil_mode=False)
    (3): Conv2d(6, 12, kernel_size=(2, 2), stride=(1, 1))
    (4): ReLU()
    (5): Conv2d(12, 24, kernel_size=(2, 2), stride=(1, 1))
    (6): ReLU()
  )
  (actor): Sequential(
    (0): Linear(in_features=25, out_features=24, bias=True)
    (1): Tanh()
    (2): Linear(in_features=24, out_features=7, bias=True)
  )
  (critic): Sequential(
    (0): Linear(in_features=25, out_features=24, bias=True)
    (1): Tanh()
    (2): Linear(in_features=24, out_features=1, bias=True)
  )
)

ACModel(
  (image_conv): Sequential(
    (0): Conv2d(3, 6, kernel_size=(2, 2), stride=(1, 1))
    (1): ReLU()
    (2): MaxPool2d(kernel_size=(2, 2), stride=(2, 2), padding=0, dilation=1, ceil_mode=False)
    (3): Conv2d(6, 12, kernel_size=(2, 2), stride=(1, 1))
    (4): ReLU()
    (5): Conv2d(12, 24, kernel_size=(2, 2), stride=(1, 1))
    (6): ReLU()
  )
  (actor): Sequential(
    (0): Linear(in_features=25, out_features=24, bias=True)
    (1): Tanh()
    (2): Linear(in_features=24, out_features=7, bias=True)
  )
  (critic): Sequential(
    (0): Linear(in_features=25, out_features=24, bias=True)
    (1): Tanh()
    (2): Linear(in_features=24, out_features=1, bias=True)
  )
)

Optimizer loaded

Optimizer loaded

U 1 | F 002048 | FPS 0764 | D 2 | rR:μσmM 0.00 0.00 0.00 0.00 | F:μσmM 0.0 0.0 0 0 | H 1.942 | V 0.100 | pL 0.014 | vL 0.001 | ∇ 0.010
U 1 | F 002048 | FPS 0708 | D 2 | rR:μσmM 0.00 0.00 0.00 0.00 | F:μσmM 0.0 0.0 0 0 | H 1.922 | V -0.273 | pL -0.055 | vL 0.012 | ∇ 0.044
U 1 | F 002048 | FPS 0705 | D 2 | rR:μσmM 0.00 0.00 0.00 0.00 | F:μσmM 0.0 0.0 0 0 | H 1.918 | V -0.087 | pL -0.018 | vL 0.001 | ∇ 0.016
…
