…
WG          WG  WG
WG          WG  WG
WG          WG  WG
WG          WG  WG
WG          WG  WG
WG            GGWG
WGWGWGWGWGWGWGWGWG
Training status loaded

WGWGWGWGWGWGWGWGWG
WG>>            WG
WG              WG
WG              WG
WGWG  WGWGWGWGWGWG
WG              WG
WG              WG
WG            GGWG
WGWGWGWGWGWGWGWGWG
Observations preprocessor loaded
WGWGWGWGWGWGWGWGWG
WG>>        WG  WG
WG          WG  WG
WG          WG  WG
WG          WG  WG
WG          WG  WG
WG          WG  WG
WG            GGWG
WGWGWGWGWGWGWGWGWG
Model loaded

Environments loaded

ACModel(
  (image_conv): Sequential(
    (0): Conv2d(3, 16, kernel_size=(2, 2), stride=(1, 1))
    (1): ReLU()
    (2): MaxPool2d(kernel_size=(2, 2), stride=(2, 2), padding=0, dilation=1, ceil_mode=False)
    (3): Conv2d(16, 32, kernel_size=(2, 2), stride=(1, 1))
    (4): ReLU()
    (5): Conv2d(32, 64, kernel_size=(2, 2), stride=(1, 1))
    (6): ReLU()
  )
  (actor): Sequential(
    (0): Linear(in_features=66, out_features=64, bias=True)
    (1): Tanh()
    (2): Linear(in_features=64, out_features=7, bias=True)
  )
  (critic): Sequential(
    (0): Linear(in_features=66, out_features=64, bias=True)
    (1): Tanh()
    (2): Linear(in_features=64, out_features=1, bias=True)
  )
)

Training status loaded

Observations preprocessor loaded
Model loaded

ACModel(
  (image_conv): Sequential(
    (0): Conv2d(3, 16, kernel_size=(2, 2), stride=(1, 1))
    (1): ReLU()
    (2): MaxPool2d(kernel_size=(2, 2), stride=(2, 2), padding=0, dilation=1, ceil_mode=False)
    (3): Conv2d(16, 32, kernel_size=(2, 2), stride=(1, 1))
    (4): ReLU()
    (5): Conv2d(32, 64, kernel_size=(2, 2), stride=(1, 1))
    (6): ReLU()
  )
  (actor): Sequential(
    (0): Linear(in_features=66, out_features=64, bias=True)
    (1): Tanh()
    (2): Linear(in_features=64, out_features=7, bias=True)
  )
  (critic): Sequential(
    (0): Linear(in_features=66, out_features=64, bias=True)
    (1): Tanh()
    (2): Linear(in_features=64, out_features=1, bias=True)
  )
)

Optimizer loaded

Optimizer loaded

U 1 | F 002048 | FPS 0672 | D 3 | rR:μσmM 0.00 0.00 0.00 0.00 | F:μσmM 0.0 0.0 0 0 | H 1.922 | V -0.116 | pL -0.013 | vL 0.001 | ∇ 0.044
U 1 | F 002048 | FPS 0671 | D 3 | rR:μσmM 0.00 0.00 0.00 0.00 | F:μσmM 0.0 0.0 0 0 | H 1.924 | V 0.220 | pL 0.037 | vL 0.001 | ∇ 0.037
U 2 | F 004096 | FPS 0670 | D 6 | rR:μσmM 0.03 0.11 0.00 0.47 | F:μσmM 12.0 46.5 0.0 192.0 | H 1.936 | V -0.078 | pL -0.019 | vL 0.001 | ∇ 0.017
…
