…
leCrossingS9N1-v0 --model simple3 --save-interval 10 --frames 8000000

Namespace(algo='ppo', batch_size=256, clip_eps=0.2, discount=0.99, entropy_coef=0.01, env='MiniGrid-SimpleCrossingS9N1-v0', epochs=4, frames=8000000, frames_per_proc=None, gae_lambda=0.95, log_interval=1, lr=0.001, max_grad_norm=0.5, mem=False, model='simple3', optim_alpha=0.99, optim_eps=1e-08, procs=16, recurrence=1, save_interval=10, seed=1, text=False, value_loss_coef=0.5)

Device: cpu

Environments loaded

Training status loaded

Observations preprocessor loaded
Model loaded

ACModel(
  (image_conv): Sequential(
    (0): Conv2d(3, 16, kernel_size=(2, 2), stride=(1, 1))
    (1): ReLU()
    (2): MaxPool2d(kernel_size=(2, 2), stride=(2, 2), padding=0, dilation=1, ceil_mode=False)
    (3): Conv2d(16, 32, kernel_size=(2, 2), stride=(1, 1))
    (4): ReLU()
    (5): Conv2d(32, 64, kernel_size=(2, 2), stride=(1, 1))
    (6): ReLU()
  )
  (actor): Sequential(
    (0): Linear(in_features=64, out_features=65, bias=True)
    (1): Tanh()
    (2): Linear(in_features=65, out_features=7, bias=True)
  )
  (critic): Sequential(
    (0): Linear(in_features=64, out_features=65, bias=True)
    (1): Tanh()
    (2): Linear(in_features=65, out_features=1, bias=True)
  )
)

Optimizer loaded

/Users/ruoxili/Documents/NRL/rl-starter-files/scripts/train.py --algo ppo --env MiniGrid-SimpleCrossingS9N1-v0 --model simple3 --save-interval 10 --frames 8000000

Namespace(algo='ppo', batch_size=256, clip_eps=0.2, discount=0.99, entropy_coef=0.01, env='MiniGrid-SimpleCrossingS9N1-v0', epochs=4, frames=8000000, frames_per_proc=None, gae_lambda=0.95, log_interval=1, lr=0.001, max_grad_norm=0.5, mem=False, model='simple3', optim_alpha=0.99, optim_eps=1e-08, procs=16, recurrence=1, save_interval=10, seed=1, text=False, value_loss_coef=0.5)

Device: cpu

Environments loaded

Training status loaded

Observations preprocessor loaded
Model loaded

ACModel(
  (image_conv): Sequential(
    (0): Conv2d(3, 16, kernel_size=(2, 2), stride=(1, 1))
    (1): ReLU()
    (2): MaxPool2d(kernel_size=(2, 2), stride=(2, 2), padding=0, dilation=1, ceil_mode=False)
    (3): Conv2d(16, 32, kernel_size=(2, 2), stride=(1, 1))
    (4): ReLU()
    (5): Conv2d(32, 64, kernel_size=(2, 2), stride=(1, 1))
    (6): ReLU()
  )
  (actor): Sequential(
    (0): Linear(in_features=64, out_features=65, bias=True)
    (1): Tanh()
    (2): Linear(in_features=65, out_features=7, bias=True)
  )
  (critic): Sequential(
    (0): Linear(in_features=64, out_features=65, bias=True)
    (1): Tanh()
    (2): Linear(in_features=65, out_features=1, bias=True)
  )
)

Optimizer loaded

/Users/ruoxili/Documents/NRL/rl-starter-files/scripts/train.py --algo ppo --env MiniGrid-SimpleCrossingS9N1-v0 --model simple3 --save-interval 10 --frames 8000000

Namespace(algo='ppo', batch_size=256, clip_eps=0.2, discount=0.99, entropy_coef=0.01, env='MiniGrid-SimpleCrossingS9N1-v0', epochs=4, frames=8000000, frames_per_proc=None, gae_lambda=0.95, log_interval=1, lr=0.001, max_grad_norm=0.5, mem=False, model='simple3', optim_alpha=0.99, optim_eps=1e-08, procs=16, recurrence=1, save_interval=10, seed=1, text=False, value_loss_coef=0.5)

Device: cpu

Environments loaded

Training status loaded

Observations preprocessor loaded
Model loaded

ACModel(
  (image_conv): Sequential(
    (0): Conv2d(3, 16, kernel_size=(2, 2), stride=(1, 1))
    (1): ReLU()
    (2): MaxPool2d(kernel_size=(2, 2), stride=(2, 2), padding=0, dilation=1, ceil_mode=False)
    (3): Conv2d(16, 32, kernel_size=(2, 2), stride=(1, 1))
    (4): ReLU()
    (5): Conv2d(32, 64, kernel_size=(2, 2), stride=(1, 1))
    (6): ReLU()
  )
  (actor): Sequential(
    (0): Linear(in_features=64, out_features=65, bias=True)
    (1): Tanh()
    (2): Linear(in_features=65, out_features=7, bias=True)
  )
  (critic): Sequential(
    (0): Linear(in_features=64, out_features=65, bias=True)
    (1): Tanh()
    (2): Linear(in_features=65, out_features=1, bias=True)
  )
)

Optimizer loaded

/Users/ruoxili/Documents/NRL/rl-starter-files/scripts/train.py --algo ppo --env MiniGrid-SimpleCrossingS9N1-v0 --model simple3 --save-interval 10 --frames 8000000

Namespace(algo='ppo', batch_size=256, clip_eps=0.2, discount=0.99, entropy_coef=0.01, env='MiniGrid-SimpleCrossingS9N1-v0', epochs=4, frames=8000000, frames_per_proc=None, gae_lambda=0.95, log_interval=1, lr=0.001, max_grad_norm=0.5, mem=False, model='simple3', optim_alpha=0.99, optim_eps=1e-08, procs=16, recurrence=1, save_interval=10, seed=1, text=False, value_loss_coef=0.5)

Device: cpu

Environments loaded

Training status loaded

Observations preprocessor loaded
Model loaded

ACModel(
  (image_conv): Sequential(
    (0): Conv2d(3, 16, kernel_size=(2, 2), stride=(1, 1))
    (1): ReLU()
    (2): MaxPool2d(kernel_size=(2, 2), stride=(2, 2), padding=0, dilation=1, ceil_mode=False)
    (3): Conv2d(16, 32, kernel_size=(2, 2), stride=(1, 1))
    (4): ReLU()
    (5): Conv2d(32, 64, kernel_size=(2, 2), stride=(1, 1))
    (6): ReLU()
  )
  (actor): Sequential(
    (0): Linear(in_features=64, out_features=65, bias=True)
    (1): Tanh()
    (2): Linear(in_features=65, out_features=7, bias=True)
  )
  (critic): Sequential(
    (0): Linear(in_features=64, out_features=65, bias=True)
    (1): Tanh()
    (2): Linear(in_features=65, out_features=1, bias=True)
  )
)

Optimizer loaded

/Users/ruoxili/Documents/NRL/rl-starter-files/scripts/train.py --algo ppo --env MiniGrid-SimpleCrossingS9N1-v0 --model simple3 --save-interval 10 --frames 8000000

Namespace(algo='ppo', batch_size=256, clip_eps=0.2, discount=0.99, entropy_coef=0.01, env='MiniGrid-SimpleCrossingS9N1-v0', epochs=4, frames=8000000, frames_per_proc=None, gae_lambda=0.95, log_interval=1, lr=0.001, max_grad_norm=0.5, mem=False, model='simple3', optim_alpha=0.99, optim_eps=1e-08, procs=16, recurrence=1, save_interval=10, seed=1, text=False, value_loss_coef=0.5)

Device: cpu

Environments loaded

Training status loaded

Observations preprocessor loaded
Model loaded

ACModel(
  (image_conv): Sequential(
    (0): Conv2d(3, 16, kernel_size=(2, 2), stride=(1, 1))
    (1): ReLU()
    (2): MaxPool2d(kernel_size=(2, 2), stride=(2, 2), padding=0, dilation=1, ceil_mode=False)
    (3): Conv2d(16, 32, kernel_size=(2, 2), stride=(1, 1))
    (4): ReLU()
    (5): Conv2d(32, 64, kernel_size=(2, 2), stride=(1, 1))
    (6): ReLU()
  )
  (actor): Sequential(
    (0): Linear(in_features=64, out_features=65, bias=True)
    (1): Tanh()
    (2): Linear(in_features=65, out_features=7, bias=True)
  )
  (critic): Sequential(
    (0): Linear(in_features=64, out_features=65, bias=True)
    (1): Tanh()
    (2): Linear(in_features=65, out_features=1, bias=True)
  )
)

Optimizer loaded

/Users/ruoxili/Documents/NRL/rl-starter-files/scripts/train.py --algo ppo --env MiniGrid-SimpleCrossingS9N1-v0 --model simple3 --save-interval 10 --frames 8000000

Namespace(algo='ppo', batch_size=256, clip_eps=0.2, discount=0.99, entropy_coef=0.01, env='MiniGrid-SimpleCrossingS9N1-v0', epochs=4, frames=8000000, frames_per_proc=None, gae_lambda=0.95, log_interval=1, lr=0.001, max_grad_norm=0.5, mem=False, model='simple3', optim_alpha=0.99, optim_eps=1e-08, procs=16, recurrence=1, save_interval=10, seed=1, text=False, value_loss_coef=0.5)

Device: cpu

Environments loaded

Training status loaded

Observations preprocessor loaded
Model loaded

ACModel(
  (image_conv): Sequential(
    (0): Conv2d(3, 16, kernel_size=(2, 2), stride=(1, 1))
    (1): ReLU()
    (2): MaxPool2d(kernel_size=(2, 2), stride=(2, 2), padding=0, dilation=1, ceil_mode=False)
    (3): Conv2d(16, 32, kernel_size=(2, 2), stride=(1, 1))
    (4): ReLU()
    (5): Conv2d(32, 64, kernel_size=(2, 2), stride=(1, 1))
    (6): ReLU()
  )
  (actor): Sequential(
    (0): Linear(in_features=64, out_features=65, bias=True)
    (1): Tanh()
    (2): Linear(in_features=65, out_features=7, bias=True)
  )
  (critic): Sequential(
    (0): Linear(in_features=64, out_features=65, bias=True)
    (1): Tanh()
    (2): Linear(in_features=65, out_features=1, bias=True)
  )
)

Optimizer loaded

/Users/ruoxili/Documents/NRL/rl-starter-files/scripts/train.py --algo ppo --env MiniGrid-SimpleCrossingS9N1-v0 --model simple3 --save-interval 10 --frames 8000000

Namespace(algo='ppo', batch_size=256, clip_eps=0.2, discount=0.99, entropy_coef=0.01, env='MiniGrid-SimpleCrossingS9N1-v0', epochs=4, frames=8000000, frames_per_proc=None, gae_lambda=0.95, log_interval=1, lr=0.001, max_grad_norm=0.5, mem=False, model='simple3', optim_alpha=0.99, optim_eps=1e-08, procs=16, recurrence=1, save_interval=10, seed=1, text=False, value_loss_coef=0.5)

Device: cpu

Environments loaded

Training status loaded

Observations preprocessor loaded
Model loaded

ACModel(
  (image_conv): Sequential(
    (0): Conv2d(3, 16, kernel_size=(2, 2), stride=(1, 1))
    (1): ReLU()
    (2): MaxPool2d(kernel_size=(2, 2), stride=(2, 2), padding=0, dilation=1, ceil_mode=False)
    (3): Conv2d(16, 32, kernel_size=(2, 2), stride=(1, 1))
    (4): ReLU()
    (5): Conv2d(32, 64, kernel_size=(2, 2), stride=(1, 1))
    (6): ReLU()
  )
  (actor): Sequential(
    (0): Linear(in_features=64, out_features=65, bias=True)
    (1): Tanh()
    (2): Linear(in_features=65, out_features=7, bias=True)
  )
  (critic): Sequential(
    (0): Linear(in_features=64, out_features=65, bias=True)
    (1): Tanh()
    (2): Linear(in_features=65, out_features=1, bias=True)
  )
)

Optimizer loaded

/Users/ruoxili/Documents/NRL/rl-starter-files/scripts/train.py --algo ppo --env MiniGrid-SimpleCrossingS9N1-v0 --model simple3 --save-interval 10 --frames 8000000

Namespace(algo='ppo', batch_size=256, clip_eps=0.2, discount=0.99, entropy_coef=0.01, env='MiniGrid-SimpleCrossingS9N1-v0', epochs=4, frames=8000000, frames_per_proc=None, gae_lambda=0.95, log_interval=1, lr=0.001, max_grad_norm=0.5, mem=False, model='simple3', optim_alpha=0.99, optim_eps=1e-08, procs=16, recurrence=1, save_interval=10, seed=1, text=False, value_loss_coef=0.5)

Device: cpu

Environments loaded

Training status loaded

Observations preprocessor loaded
Model loaded

ACModel(
  (image_conv): Sequential(
    (0): Conv2d(3, 16, kernel_size=(2, 2), stride=(1, 1))
    (1): ReLU()
    (2): MaxPool2d(kernel_size=(2, 2), stride=(2, 2), padding=0, dilation=1, ceil_mode=False)
    (3): Conv2d(16, 32, kernel_size=(2, 2), stride=(1, 1))
    (4): ReLU()
    (5): Conv2d(32, 64, kernel_size=(2, 2), stride=(1, 1))
    (6): ReLU()
  )
  (actor): Sequential(
    (0): Linear(in_features=64, out_features=65, bias=True)
    (1): Tanh()
    (2): Linear(in_features=65, out_features=7, bias=True)
  )
  (critic): Sequential(
    (0): Linear(in_features=64, out_features=65, bias=True)
    (1): Tanh()
    (2): Linear(in_features=65, out_features=1, bias=True)
  )
)

Optimizer loaded

/Users/ruoxili/Documents/NRL/rl-starter-files/scripts/train.py --algo ppo --env MiniGrid-SimpleCrossingS9N1-v0 --save-interval 10 --model simple3 --lr 0.01

Namespace(algo='ppo', batch_size=256, clip_eps=0.2, discount=0.99, entropy_coef=0.01, env='MiniGrid-SimpleCrossingS9N1-v0', epochs=4, frames=10000000, frames_per_proc=None, gae_lambda=0.95, log_interval=1, lr=0.01, max_grad_norm=0.5, mem=False, model='simple3', optim_alpha=0.99, optim_eps=1e-08, procs=16, recurrence=1, save_interval=10, seed=1, text=False, value_loss_coef=0.5)

Device: cpu

Environments loaded

Training status loaded

Observations preprocessor loaded
Model loaded

ACModel(
  (image_conv): Sequential(
    (0): Conv2d(3, 16, kernel_size=(2, 2), stride=(1, 1))
    (1): ReLU()
    (2): MaxPool2d(kernel_size=(2, 2), stride=(2, 2), padding=0, dilation=1, ceil_mode=False)
    (3): Conv2d(16, 32, kernel_size=(2, 2), stride=(1, 1))
    (4): ReLU()
    (5): Conv2d(32, 64, kernel_size=(2, 2), stride=(1, 1))
    (6): ReLU()
  )
  (actor): Sequential(
    (0): Linear(in_features=64, out_features=64, bias=True)
    (1): Tanh()
    (2): Linear(in_features=64, out_features=7, bias=True)
  )
  (critic): Sequential(
    (0): Linear(in_features=64, out_features=64, bias=True)
    (1): Tanh()
    (2): Linear(in_features=64, out_features=1, bias=True)
  )
)

Optimizer loaded

U 1 | F 002048 | FPS 1278 | D 1 | rR:μσmM 0.04 0.16 0.00 0.66 | F:μσmM 7.8 30.0 0.0 124.0 | H 1.924 | V -0.090 | pL -0.024 | vL 0.003 | ∇ 0.017
U 2 | F 004096 | FPS 1022 | D 3 | rR:μσmM 0.08 0.20 0.00 0.66 | F:μσmM 17.8 47.6 0.0 161.0 | H 1.933 | V -0.086 | pL -0.021 | vL 0.002 | ∇ 0.008
U 3 | F 006144 | FPS 1276 | D 5 | rR:μσmM 0.08 0.20 0.00 0.66 | F:μσmM 301.3 60.4 124.0 324.0 | H 1.942 | V -0.071 | pL -0.022 | vL 0.000 | ∇ 0.005
…
/Users/ruoxili/Documents/NRL/rl-starter-files/scripts/train.py --algo ppo --env MiniGrid-SimpleCrossingS9N1-v0 --save-interval 10 --model simple3 --lr 0.01

Namespace(algo='ppo', batch_size=256, clip_eps=0.2, discount=0.99, entropy_coef=0.01, env='MiniGrid-SimpleCrossingS9N1-v0', epochs=4, frames=10000000, frames_per_proc=None, gae_lambda=0.95, log_interval=1, lr=0.01, max_grad_norm=0.5, mem=False, model='simple3', optim_alpha=0.99, optim_eps=1e-08, procs=16, recurrence=1, save_interval=10, seed=1, text=False, value_loss_coef=0.5)

Device: cpu

Environments loaded

Training status loaded

Observations preprocessor loaded
Model loaded

ACModel(
  (image_conv): Sequential(
    (0): Conv2d(3, 16, kernel_size=(2, 2), stride=(1, 1))
    (1): ReLU()
    (2): MaxPool2d(kernel_size=(2, 2), stride=(2, 2), padding=0, dilation=1, ceil_mode=False)
    (3): Conv2d(16, 32, kernel_size=(2, 2), stride=(1, 1))
    (4): ReLU()
    (5): Conv2d(32, 64, kernel_size=(2, 2), stride=(1, 1))
    (6): ReLU()
  )
  (actor): Sequential(
    (0): Linear(in_features=64, out_features=64, bias=True)
    (1): Tanh()
    (2): Linear(in_features=64, out_features=7, bias=True)
  )
  (critic): Sequential(
    (0): Linear(in_features=64, out_features=64, bias=True)
    (1): Tanh()
    (2): Linear(in_features=64, out_features=1, bias=True)
  )
)

Optimizer loaded

/Users/ruoxili/Documents/NRL/rl-starter-files/scripts/train.py --algo ppo --env MiniGrid-SimpleCrossingS9N1-v0 --save-interval 10 --model simple3 --lr 0.01

Namespace(algo='ppo', batch_size=256, clip_eps=0.2, discount=0.99, entropy_coef=0.01, env='MiniGrid-SimpleCrossingS9N1-v0', epochs=4, frames=10000000, frames_per_proc=None, gae_lambda=0.95, log_interval=1, lr=0.01, max_grad_norm=0.5, mem=False, model='simple3', optim_alpha=0.99, optim_eps=1e-08, procs=16, recurrence=1, save_interval=10, seed=1, text=False, value_loss_coef=0.5)

Device: cpu

Environments loaded

Training status loaded

Observations preprocessor loaded
Model loaded

ACModel(
  (image_conv): Sequential(
    (0): Conv2d(3, 16, kernel_size=(2, 2), stride=(1, 1))
    (1): ReLU()
    (2): MaxPool2d(kernel_size=(2, 2), stride=(2, 2), padding=0, dilation=1, ceil_mode=False)
    (3): Conv2d(16, 32, kernel_size=(2, 2), stride=(1, 1))
    (4): ReLU()
    (5): Conv2d(32, 64, kernel_size=(2, 2), stride=(1, 1))
    (6): ReLU()
  )
  (actor): Sequential(
    (0): Linear(in_features=64, out_features=64, bias=True)
    (1): Tanh()
    (2): Linear(in_features=64, out_features=7, bias=True)
  )
  (critic): Sequential(
    (0): Linear(in_features=64, out_features=64, bias=True)
    (1): Tanh()
    (2): Linear(in_features=64, out_features=1, bias=True)
  )
)

Optimizer loaded

/Users/ruoxili/Documents/NRL/rl-starter-files/scripts/train.py --algo ppo --env MiniGrid-SimpleCrossingS9N1-v0 --save-interval 10 --model simple3 --lr 0.01

Namespace(algo='ppo', batch_size=256, clip_eps=0.2, discount=0.99, entropy_coef=0.01, env='MiniGrid-SimpleCrossingS9N1-v0', epochs=4, frames=10000000, frames_per_proc=None, gae_lambda=0.95, log_interval=1, lr=0.01, max_grad_norm=0.5, mem=False, model='simple3', optim_alpha=0.99, optim_eps=1e-08, procs=16, recurrence=1, save_interval=10, seed=1, text=False, value_loss_coef=0.5)

Device: cpu

Environments loaded

Training status loaded

Observations preprocessor loaded
Model loaded

ACModel(
  (image_conv): Sequential(
    (0): Conv2d(3, 16, kernel_size=(2, 2), stride=(1, 1))
    (1): ReLU()
    (2): MaxPool2d(kernel_size=(2, 2), stride=(2, 2), padding=0, dilation=1, ceil_mode=False)
    (3): Conv2d(16, 32, kernel_size=(2, 2), stride=(1, 1))
    (4): ReLU()
    (5): Conv2d(32, 64, kernel_size=(2, 2), stride=(1, 1))
    (6): ReLU()
  )
  (actor): Sequential(
    (0): Linear(in_features=64, out_features=64, bias=True)
    (1): Tanh()
    (2): Linear(in_features=64, out_features=7, bias=True)
  )
  (critic): Sequential(
    (0): Linear(in_features=64, out_features=64, bias=True)
    (1): Tanh()
    (2): Linear(in_features=64, out_features=1, bias=True)
  )
)

Optimizer loaded

/Users/ruoxili/Documents/NRL/rl-starter-files/scripts/train.py --algo ppo --env MiniGrid-SimpleCrossingS9N1-v0 --save-interval 10 --model simple3 --lr 0.01

Namespace(algo='ppo', batch_size=256, clip_eps=0.2, discount=0.99, entropy_coef=0.01, env='MiniGrid-SimpleCrossingS9N1-v0', epochs=4, frames=10000000, frames_per_proc=None, gae_lambda=0.95, log_interval=1, lr=0.01, max_grad_norm=0.5, mem=False, model='simple3', optim_alpha=0.99, optim_eps=1e-08, procs=16, recurrence=1, save_interval=10, seed=1, text=False, value_loss_coef=0.5)

Device: cpu

Environments loaded

Training status loaded

Observations preprocessor loaded
Model loaded

ACModel(
  (image_conv): Sequential(
    (0): Conv2d(3, 16, kernel_size=(2, 2), stride=(1, 1))
    (1): ReLU()
    (2): MaxPool2d(kernel_size=(2, 2), stride=(2, 2), padding=0, dilation=1, ceil_mode=False)
    (3): Conv2d(16, 32, kernel_size=(2, 2), stride=(1, 1))
    (4): ReLU()
    (5): Conv2d(32, 64, kernel_size=(2, 2), stride=(1, 1))
    (6): ReLU()
  )
  (actor): Sequential(
    (0): Linear(in_features=64, out_features=64, bias=True)
    (1): Tanh()
    (2): Linear(in_features=64, out_features=7, bias=True)
  )
  (critic): Sequential(
    (0): Linear(in_features=64, out_features=64, bias=True)
    (1): Tanh()
    (2): Linear(in_features=64, out_features=1, bias=True)
  )
)

Optimizer loaded

U 1 | F 002048 | FPS 1541 | D 1 | rR:μσmM 0.04 0.16 0.00 0.66 | F:μσmM 7.8 30.0 0.0 124.0 | H 1.924 | V -0.090 | pL -0.024 | vL 0.003 | ∇ 0.017
U 2 | F 004096 | FPS 1649 | D 2 | rR:μσmM 0.08 0.20 0.00 0.66 | F:μσmM 17.8 47.6 0.0 161.0 | H 1.933 | V -0.086 | pL -0.021 | vL 0.002 | ∇ 0.008
U 3 | F 006144 | FPS 1627 | D 3 | rR:μσmM 0.08 0.20 0.00 0.66 | F:μσmM 301.3 60.4 124.0 324.0 | H 1.942 | V -0.071 | pL -0.022 | vL 0.000 | ∇ 0.005
…
