…
rossingS9N1-v0 --save-interval 10 --model simple11 --lr 0.001 --text

Namespace(algo='ppo', batch_size=256, clip_eps=0.2, discount=0.99, entropy_coef=0.01, env='MiniGrid-SimpleCrossingS9N1-v0', epochs=4, frames=10000000, frames_per_proc=None, gae_lambda=0.95, log_interval=1, lr=0.001, max_grad_norm=0.5, mem=False, model='simple11', optim_alpha=0.99, optim_eps=1e-08, procs=16, recurrence=1, save_interval=10, seed=1, text=True, value_loss_coef=0.5)

Device: cpu

Environments loaded

Training status loaded

Observations preprocessor loaded
Model loaded

ACModel(
  (image_conv): Sequential(
    (0): Conv2d(3, 16, kernel_size=(2, 2), stride=(1, 1))
    (1): ReLU()
    (2): MaxPool2d(kernel_size=(2, 2), stride=(2, 2), padding=0, dilation=1, ceil_mode=False)
    (3): Conv2d(16, 32, kernel_size=(2, 2), stride=(1, 1))
    (4): ReLU()
    (5): Conv2d(32, 64, kernel_size=(2, 2), stride=(1, 1))
    (6): ReLU()
  )
  (word_embedding): Embedding(100, 32)
  (text_rnn): GRU(32, 128, batch_first=True)
  (actor): Sequential(
    (0): Linear(in_features=192, out_features=64, bias=True)
    (1): Tanh()
    (2): Linear(in_features=64, out_features=7, bias=True)
  )
  (critic): Sequential(
    (0): Linear(in_features=192, out_features=64, bias=True)
    (1): Tanh()
    (2): Linear(in_features=64, out_features=1, bias=True)
  )
)

Optimizer loaded

U 1 | F 002048 | FPS 1178 | D 1 | rR:μσmM 0.00 0.00 0.00 0.00 | F:μσmM 0.0 0.0 0 0 | H 1.931 | V 0.018 | pL 0.002 | vL 0.001 | ∇ 0.066
U 2 | F 004096 | FPS 0782 | D 4 | rR:μσmM 0.04 0.14 0.00 0.56 | F:μσmM 9.9 38.2 0.0 158.0 | H 1.939 | V -0.008 | pL -0.007 | vL 0.001 | ∇ 0.016
U 3 | F 006144 | FPS 1301 | D 5 | rR:μσmM 0.04 0.14 0.00 0.56 | F:μσmM 313.6 40.2 158.0 324.0 | H 1.941 | V -0.006 | pL -0.001 | vL 0.000 | ∇ 0.005
…
/Users/ruoxili/Documents/NRL/rl-starter-files/scripts/train.py --algo ppo --env MiniGrid-SimpleCrossingS9N1-v0 --save-interval 10 --model simple11 --lr 0.001 --text

Namespace(algo='ppo', batch_size=256, clip_eps=0.2, discount=0.99, entropy_coef=0.01, env='MiniGrid-SimpleCrossingS9N1-v0', epochs=4, frames=10000000, frames_per_proc=None, gae_lambda=0.95, log_interval=1, lr=0.001, max_grad_norm=0.5, mem=False, model='simple11', optim_alpha=0.99, optim_eps=1e-08, procs=16, recurrence=1, save_interval=10, seed=1, text=True, value_loss_coef=0.5)

Device: cpu

Environments loaded

Training status loaded

Observations preprocessor loaded
Model loaded

ACModel(
  (image_conv): Sequential(
    (0): Conv2d(3, 16, kernel_size=(2, 2), stride=(1, 1))
    (1): ReLU()
    (2): MaxPool2d(kernel_size=(2, 2), stride=(2, 2), padding=0, dilation=1, ceil_mode=False)
    (3): Conv2d(16, 32, kernel_size=(2, 2), stride=(1, 1))
    (4): ReLU()
    (5): Conv2d(32, 64, kernel_size=(2, 2), stride=(1, 1))
    (6): ReLU()
  )
  (word_embedding): Embedding(100, 32)
  (text_rnn): GRU(32, 128, batch_first=True)
  (actor): Sequential(
    (0): Linear(in_features=192, out_features=64, bias=True)
    (1): Tanh()
    (2): Linear(in_features=64, out_features=7, bias=True)
  )
  (critic): Sequential(
    (0): Linear(in_features=192, out_features=64, bias=True)
    (1): Tanh()
    (2): Linear(in_features=64, out_features=1, bias=True)
  )
)

Optimizer loaded

/Users/ruoxili/Documents/NRL/rl-starter-files/scripts/train.py --algo ppo --env MiniGrid-SimpleCrossingS9N1-v0 --save-interval 10 --model simple11 --lr 0.001 --text --procs 1

Namespace(algo='ppo', batch_size=256, clip_eps=0.2, discount=0.99, entropy_coef=0.01, env='MiniGrid-SimpleCrossingS9N1-v0', epochs=4, frames=10000000, frames_per_proc=None, gae_lambda=0.95, log_interval=1, lr=0.001, max_grad_norm=0.5, mem=False, model='simple11', optim_alpha=0.99, optim_eps=1e-08, procs=1, recurrence=1, save_interval=10, seed=1, text=True, value_loss_coef=0.5)

Device: cpu

Environments loaded

Training status loaded

Observations preprocessor loaded
Model loaded

ACModel(
  (image_conv): Sequential(
    (0): Conv2d(3, 16, kernel_size=(2, 2), stride=(1, 1))
    (1): ReLU()
    (2): MaxPool2d(kernel_size=(2, 2), stride=(2, 2), padding=0, dilation=1, ceil_mode=False)
    (3): Conv2d(16, 32, kernel_size=(2, 2), stride=(1, 1))
    (4): ReLU()
    (5): Conv2d(32, 64, kernel_size=(2, 2), stride=(1, 1))
    (6): ReLU()
  )
  (word_embedding): Embedding(100, 32)
  (text_rnn): GRU(32, 128, batch_first=True)
  (actor): Sequential(
    (0): Linear(in_features=192, out_features=64, bias=True)
    (1): Tanh()
    (2): Linear(in_features=64, out_features=7, bias=True)
  )
  (critic): Sequential(
    (0): Linear(in_features=192, out_features=64, bias=True)
    (1): Tanh()
    (2): Linear(in_features=64, out_features=1, bias=True)
  )
)

Optimizer loaded

U 241 | F 491648 | FPS 0391 | D 0 | rR:μσmM 0.90 0.03 0.85 0.94 | F:μσmM 36.7 12.4 23.0 53.0 | H 1.492 | V 0.718 | pL -0.001 | vL 0.002 | ∇ 0.032
U 242 | F 491776 | FPS 0337 | D 0 | rR:μσmM 0.90 0.02 0.88 0.92 | F:μσmM 35.7 5.7 29.0 43.0 | H 1.494 | V 0.710 | pL -0.009 | vL 0.004 | ∇ 0.046
U 243 | F 491904 | FPS 0439 | D 1 | rR:μσmM 0.88 0.02 0.86 0.90 | F:μσmM 43.5 6.5 37.0 50.0 | H 1.548 | V 0.667 | pL 0.033 | vL 0.003 | ∇ 0.088
…
