…
WG              WG
WG          WGGGWG
WGWGWGWGWGWGWGWGWG
WGWGWGWGWGWGWGWGWG
WG>>            WG
WGWG  WGWGWGWGWGWG
WG              WG
WG              WG
WG              WG
WG              WG
WG            GGWG
WGWGWGWGWGWGWGWGWG
Environments loaded

Training status loaded

Observations preprocessor loaded
WGWGWGWGWGWGWGWGWG
WG>>            WG
WGWGWGWGWGWG  WGWG
WG              WG
WG              WG
WG              WG
WG              WG
WG            GGWG
WGWGWGWGWGWGWGWGWG
Environments loaded

Training status loaded

Observations preprocessor loaded
Model loaded

ACModel(
  (image_conv): Sequential(
    (0): Conv2d(3, 31, kernel_size=(2, 2), stride=(1, 1))
    (1): ReLU()
    (2): MaxPool2d(kernel_size=(2, 2), stride=(2, 2), padding=0, dilation=1, ceil_mode=False)
    (3): Conv2d(31, 62, kernel_size=(2, 2), stride=(1, 1))
    (4): ReLU()
    (5): Conv2d(62, 124, kernel_size=(2, 2), stride=(1, 1))
    (6): ReLU()
  )
  (actor): Sequential(
    (0): Linear(in_features=125, out_features=124, bias=True)
    (1): Tanh()
    (2): Linear(in_features=124, out_features=7, bias=True)
  )
  (critic): Sequential(
    (0): Linear(in_features=125, out_features=124, bias=True)
    (1): Tanh()
    (2): Linear(in_features=124, out_features=1, bias=True)
  )
)

Model loaded

ACModel(
  (image_conv): Sequential(
    (0): Conv2d(3, 31, kernel_size=(2, 2), stride=(1, 1))
    (1): ReLU()
    (2): MaxPool2d(kernel_size=(2, 2), stride=(2, 2), padding=0, dilation=1, ceil_mode=False)
    (3): Conv2d(31, 62, kernel_size=(2, 2), stride=(1, 1))
    (4): ReLU()
    (5): Conv2d(62, 124, kernel_size=(2, 2), stride=(1, 1))
    (6): ReLU()
  )
  (actor): Sequential(
    (0): Linear(in_features=125, out_features=124, bias=True)
    (1): Tanh()
    (2): Linear(in_features=124, out_features=7, bias=True)
  )
  (critic): Sequential(
    (0): Linear(in_features=125, out_features=124, bias=True)
    (1): Tanh()
    (2): Linear(in_features=124, out_features=1, bias=True)
  )
)

Optimizer loaded

Optimizer loaded

U 1 | F 002048 | FPS 0553 | D 3 | rR:μσmM 0.00 0.00 0.00 0.00 | F:μσmM 0.0 0.0 0 0 | H 1.930 | V 0.241 | pL 0.032 | vL 0.003 | ∇ 0.044
U 1 | F 002048 | FPS 0553 | D 3 | rR:μσmM 0.00 0.00 0.00 0.00 | F:μσmM 0.0 0.0 0 0 | H 1.939 | V 0.037 | pL 0.010 | vL 0.001 | ∇ 0.032
U 2 | F 004096 | FPS 0551 | D 7 | rR:μσmM 0.04 0.15 0.00 0.64 | F:μσmM 8.1 31.5 0.0 130.0 | H 1.928 | V 0.202 | pL 0.035 | vL 0.001 | ∇ 0.024
…
