…
Observations preprocessor loaded
WGWGWGWGWGWGWGWGWG
WG>>            WG
WG              WG
WG              WG
WG              WG
WG              WG
WGWG  WGWGWGWGWGWG
WG            GGWG
WGWGWGWGWGWGWGWGWG
WGWGWGWGWGWGWGWGWG
WG>>            WG
WG  WG          WG
WG  WG          WG
WG  WG          WG
WG  WG          WG
WG  WG          WG
WG  WG        GGWG
WGWGWGWGWGWGWGWGWG
Model loaded

WGWGWGWGWGWGWGWGWG
WG>>            WG
WGWGWGWG  WGWGWGWG
WG              WG
WG              WG
WG              WG
WG              WG
WG            GGWG
WGWGWGWGWGWGWGWGWG
ACModel(
  (image_conv): Sequential(
    (0): Conv2d(3, 3, kernel_size=(2, 2), stride=(1, 1))
    (1): ReLU()
    (2): MaxPool2d(kernel_size=(2, 2), stride=(2, 2), padding=0, dilation=1, ceil_mode=False)
    (3): Conv2d(3, 6, kernel_size=(2, 2), stride=(1, 1))
    (4): ReLU()
    (5): Conv2d(6, 12, kernel_size=(2, 2), stride=(1, 1))
    (6): ReLU()
  )
  (actor): Sequential(
    (0): Linear(in_features=13, out_features=12, bias=True)
    (1): Tanh()
    (2): Linear(in_features=12, out_features=7, bias=True)
  )
  (critic): Sequential(
    (0): Linear(in_features=13, out_features=12, bias=True)
    (1): Tanh()
    (2): Linear(in_features=12, out_features=1, bias=True)
  )
)

WGWGWGWGWGWGWGWGWG
WG>>            WG
WG          WG  WG
WG          WG  WG
WG          WG  WG
WG          WG  WG
WG          WG  WG
WG          WGGGWG
WGWGWGWGWGWGWGWGWG
WGWGWGWGWGWGWGWGWG
WG>>            WG
WGWGWG  WGWGWGWGWG
WG              WG
WG              WG
WG              WG
WG              WG
WG            GGWG
WGWGWGWGWGWGWGWGWG
Environments loaded

Training status loaded

Observations preprocessor loaded
Model loaded

ACModel(
  (image_conv): Sequential(
    (0): Conv2d(3, 3, kernel_size=(2, 2), stride=(1, 1))
    (1): ReLU()
    (2): MaxPool2d(kernel_size=(2, 2), stride=(2, 2), padding=0, dilation=1, ceil_mode=False)
    (3): Conv2d(3, 6, kernel_size=(2, 2), stride=(1, 1))
    (4): ReLU()
    (5): Conv2d(6, 12, kernel_size=(2, 2), stride=(1, 1))
    (6): ReLU()
  )
  (actor): Sequential(
    (0): Linear(in_features=13, out_features=12, bias=True)
    (1): Tanh()
    (2): Linear(in_features=12, out_features=7, bias=True)
  )
  (critic): Sequential(
    (0): Linear(in_features=13, out_features=12, bias=True)
    (1): Tanh()
    (2): Linear(in_features=12, out_features=1, bias=True)
  )
)

Optimizer loaded

Optimizer loaded

U 1 | F 002048 | FPS 0731 | D 2 | rR:μσmM 0.00 0.00 0.00 0.00 | F:μσmM 0.0 0.0 0 0 | H 1.935 | V 0.150 | pL 0.019 | vL 0.001 | ∇ 0.014
U 1 | F 002048 | FPS 0724 | D 2 | rR:μσmM 0.00 0.00 0.00 0.00 | F:μσmM 0.0 0.0 0 0 | H 1.931 | V 0.295 | pL 0.050 | vL 0.001 | ∇ 0.016
U 2 | F 004096 | FPS 0728 | D 5 | rR:μσmM 0.03 0.10 0.00 0.41 | F:μσmM 13.3 51.6 0.0 213.0 | H 1.937 | V 0.135 | pL 0.022 | vL 0.001 | ∇ 0.010
…
