…
Observations preprocessor loaded
WGWGWGWGWGWGWGWGWG
WG>>    WG      WG
WG      WG      WG
WG      WG      WG
WG      WG      WG
WG              WG
WG      WG      WG
WG      WG    GGWG
WGWGWGWGWGWGWGWGWG
WGWGWGWGWGWGWGWGWG
WG>>            WG
WG              WG
WG              WG
WG              WG
WG              WG
WGWG  WGWGWGWGWGWG
WG            GGWG
WGWGWGWGWGWGWGWGWG
WGWGWGWGWGWGWGWGWG
WG>>        WG  WG
WG              WG
WG          WG  WG
WG          WG  WG
WG          WG  WG
WG          WG  WG
WG          WGGGWG
WGWGWGWGWGWGWGWGWG
Model loaded

ACModel(
  (image_conv): Sequential(
    (0): Conv2d(3, 2, kernel_size=(2, 2), stride=(1, 1))
    (1): ReLU()
    (2): MaxPool2d(kernel_size=(2, 2), stride=(2, 2), padding=0, dilation=1, ceil_mode=False)
    (3): Conv2d(2, 4, kernel_size=(2, 2), stride=(1, 1))
    (4): ReLU()
    (5): Conv2d(4, 8, kernel_size=(2, 2), stride=(1, 1))
    (6): ReLU()
  )
  (actor): Sequential(
    (0): Linear(in_features=9, out_features=8, bias=True)
    (1): Tanh()
    (2): Linear(in_features=8, out_features=7, bias=True)
  )
  (critic): Sequential(
    (0): Linear(in_features=9, out_features=8, bias=True)
    (1): Tanh()
    (2): Linear(in_features=8, out_features=1, bias=True)
  )
)

WGWGWGWGWGWGWGWGWG
WG>>            WG
WG              WG
WG              WG
WG  WGWGWGWGWGWGWG
WG              WG
WG              WG
WG            GGWG
WGWGWGWGWGWGWGWGWG
WGWGWGWGWGWGWGWGWG
WG>>    WG      WG
WG              WG
WG      WG      WG
WG      WG      WG
WG      WG      WG
WG      WG      WG
WG      WG    GGWG
WGWGWGWGWGWGWGWGWG
WGWGWGWGWGWGWGWGWG
WG>>            WG
WG              WG
WG              WG
WGWG  WGWGWGWGWGWG
WG              WG
WG              WG
WG            GGWG
WGWGWGWGWGWGWGWGWG
Environments loaded

Training status loaded

Observations preprocessor loaded
Model loaded

ACModel(
  (image_conv): Sequential(
    (0): Conv2d(3, 2, kernel_size=(2, 2), stride=(1, 1))
    (1): ReLU()
    (2): MaxPool2d(kernel_size=(2, 2), stride=(2, 2), padding=0, dilation=1, ceil_mode=False)
    (3): Conv2d(2, 4, kernel_size=(2, 2), stride=(1, 1))
    (4): ReLU()
    (5): Conv2d(4, 8, kernel_size=(2, 2), stride=(1, 1))
    (6): ReLU()
  )
  (actor): Sequential(
    (0): Linear(in_features=9, out_features=8, bias=True)
    (1): Tanh()
    (2): Linear(in_features=8, out_features=7, bias=True)
  )
  (critic): Sequential(
    (0): Linear(in_features=9, out_features=8, bias=True)
    (1): Tanh()
    (2): Linear(in_features=8, out_features=1, bias=True)
  )
)

Optimizer loaded

Optimizer loaded

U 1 | F 002048 | FPS 0734 | D 2 | rR:μσmM 0.00 0.00 0.00 0.00 | F:μσmM 0.0 0.0 0 0 | H 1.936 | V -0.068 | pL -0.009 | vL 0.001 | ∇ 0.010
U 1 | F 002048 | FPS 0723 | D 2 | rR:μσmM 0.00 0.00 0.00 0.00 | F:μσmM 0.0 0.0 0 0 | H 1.856 | V -0.009 | pL -0.008 | vL 0.002 | ∇ 0.019
U 2 | F 004096 | FPS 0736 | D 5 | rR:μσmM 0.03 0.10 0.00 0.40 | F:μσmM 13.4 52.0 0.0 215.0 | H 1.936 | V -0.051 | pL -0.013 | vL 0.001 | ∇ 0.007
…
