…
WG  WG        GGWG
WGWGWGWGWGWGWGWGWG
WGWGWGWGWGWGWGWGWG
WG>>            WG
WGWGWGWGWGWG  WGWG
WG              WG
WG              WG
WG              WG
WG              WG
WG            GGWG
WGWGWGWGWGWGWGWGWG
WGWGWGWGWGWGWGWGWG
WG>>        WG  WG
WG              WG
WG          WG  WG
WG          WG  WG
WG          WG  WG
WG          WG  WG
WG          WGGGWG
WGWGWGWGWGWGWGWGWG
Model loaded

WGWGWGWGWGWGWGWGWG
WG>>            WG
WG              WG
WG              WG
WGWGWG  WGWGWGWGWG
WG              WG
WG              WG
WG            GGWG
WGWGWGWGWGWGWGWGWG
ACModel(
  (image_conv): Sequential(
    (0): Conv2d(3, 16, kernel_size=(2, 2), stride=(1, 1))
    (1): ReLU()
    (2): MaxPool2d(kernel_size=(2, 2), stride=(2, 2), padding=0, dilation=1, ceil_mode=False)
    (3): Conv2d(16, 32, kernel_size=(2, 2), stride=(1, 1))
    (4): ReLU()
    (5): Conv2d(32, 64, kernel_size=(2, 2), stride=(1, 1))
    (6): ReLU()
  )
  (actor): Sequential(
    (0): Linear(in_features=65, out_features=64, bias=True)
    (1): Tanh()
    (2): Linear(in_features=64, out_features=7, bias=True)
  )
  (critic): Sequential(
    (0): Linear(in_features=65, out_features=64, bias=True)
    (1): Tanh()
    (2): Linear(in_features=64, out_features=1, bias=True)
  )
)

WGWGWGWGWGWGWGWGWG
WG>>    WG      WG
WG      WG      WG
WG      WG      WG
WG              WG
WG      WG      WG
WG      WG      WG
WG      WG    GGWG
WGWGWGWGWGWGWGWGWG
WGWGWGWGWGWGWGWGWG
WG>>            WG
WG              WG
WG              WG
WGWGWGWGWGWG  WGWG
WG              WG
WG              WG
WG            GGWG
WGWGWGWGWGWGWGWGWG
Environments loaded

Training status loaded

Observations preprocessor loaded
Model loaded

ACModel(
  (image_conv): Sequential(
    (0): Conv2d(3, 16, kernel_size=(2, 2), stride=(1, 1))
    (1): ReLU()
    (2): MaxPool2d(kernel_size=(2, 2), stride=(2, 2), padding=0, dilation=1, ceil_mode=False)
    (3): Conv2d(16, 32, kernel_size=(2, 2), stride=(1, 1))
    (4): ReLU()
    (5): Conv2d(32, 64, kernel_size=(2, 2), stride=(1, 1))
    (6): ReLU()
  )
  (actor): Sequential(
    (0): Linear(in_features=65, out_features=64, bias=True)
    (1): Tanh()
    (2): Linear(in_features=64, out_features=7, bias=True)
  )
  (critic): Sequential(
    (0): Linear(in_features=65, out_features=64, bias=True)
    (1): Tanh()
    (2): Linear(in_features=64, out_features=1, bias=True)
  )
)

Optimizer loaded

Optimizer loaded

U 1 | F 002048 | FPS 0667 | D 3 | rR:μσmM 0.00 0.00 0.00 0.00 | F:μσmM 0.0 0.0 0 0 | H 1.931 | V -0.012 | pL -0.004 | vL 0.001 | ∇ 0.026
U 1 | F 002048 | FPS 0668 | D 3 | rR:μσmM 0.00 0.00 0.00 0.00 | F:μσmM 0.0 0.0 0 0 | H 1.936 | V -0.070 | pL -0.009 | vL 0.001 | ∇ 0.030
U 2 | F 004096 | FPS 0671 | D 6 | rR:μσmM 0.00 0.00 0.00 0.00 | F:μσmM 0.0 0.0 0 0 | H 1.941 | V -0.042 | pL -0.007 | vL 0.000 | ∇ 0.006
…
