…
WG              WG
WG              WG
WG              WG
WG              WG
WGWG  WGWGWGWGWGWG
WG            GGWG
WGWGWGWGWGWGWGWGWG
WGWGWGWGWGWGWGWGWG
WG>>        WG  WG
WG          WG  WG
WG              WG
WG          WG  WG
WG          WG  WG
WG          WG  WG
WG          WGGGWG
WGWGWGWGWGWGWGWGWG
WGWGWGWGWGWGWGWGWG
WG>>            WG
WG              WG
WG              WG
WGWGWG  WGWGWGWGWG
WG              WG
WG              WG
WG            GGWG
WGWGWGWGWGWGWGWGWG
Environments loaded

Training status loaded

Observations preprocessor loaded
Model loaded

ACModel(
  (image_conv): Sequential(
    (0): Conv2d(3, 14, kernel_size=(2, 2), stride=(1, 1))
    (1): ReLU()
    (2): MaxPool2d(kernel_size=(2, 2), stride=(2, 2), padding=0, dilation=1, ceil_mode=False)
    (3): Conv2d(14, 28, kernel_size=(2, 2), stride=(1, 1))
    (4): ReLU()
    (5): Conv2d(28, 56, kernel_size=(2, 2), stride=(1, 1))
    (6): ReLU()
  )
  (actor): Sequential(
    (0): Linear(in_features=57, out_features=56, bias=True)
    (1): Tanh()
    (2): Linear(in_features=56, out_features=7, bias=True)
  )
  (critic): Sequential(
    (0): Linear(in_features=57, out_features=56, bias=True)
    (1): Tanh()
    (2): Linear(in_features=56, out_features=1, bias=True)
  )
)

Optimizer loaded

-m --algo ppo --save-interval 10 --lr 0.001 --procs 8 --spec 1 0 14

-m --algo ppo --save-interval 10 --lr 0.001 --procs 8 --spec 1 0 14

Namespace(algo='ppo', batch_size=256, clip_eps=0.2, discount=0.99, entropy_coef=0.01, env=None, epochs=4, frames=10000000, frames_per_proc=None, gae_lambda=0.95, log_interval=1, lr=0.001, max_grad_norm=0.5, mem=False, model=None, optim_alpha=0.99, optim_eps=1e-08, procs=8, recurrence=1, save_interval=10, seed=166719, spec=[1, 0, 14], text=False, value_loss_coef=0.5)
…
WG          WGGGWG
WGWGWGWGWGWGWGWGWG
WGWGWGWGWGWGWGWGWG
WG>>            WG
WGWGWG  WGWGWGWGWG
WG              WG
WG              WG
WG              WG
WG              WG
WG            GGWG
WGWGWGWGWGWGWGWGWG
WGWGWGWGWGWGWGWGWG
WG>>            WG
WGWGWGWGWG  WGWGWG
WG              WG
WG              WG
WG              WG
WG              WG
WG            GGWG
WGWGWGWGWGWGWGWGWG
Environments loaded

Environments loaded

Training status loaded

Training status loaded

Observations preprocessor loaded
Observations preprocessor loaded
Model loaded

Model loaded

ACModel(
  (image_conv): Sequential(
    (0): Conv2d(3, 14, kernel_size=(2, 2), stride=(1, 1))
    (1): ReLU()
    (2): MaxPool2d(kernel_size=(2, 2), stride=(2, 2), padding=0, dilation=1, ceil_mode=False)
    (3): Conv2d(14, 28, kernel_size=(2, 2), stride=(1, 1))
    (4): ReLU()
    (5): Conv2d(28, 56, kernel_size=(2, 2), stride=(1, 1))
    (6): ReLU()
  )
  (actor): Sequential(
    (0): Linear(in_features=57, out_features=56, bias=True)
    (1): Tanh()
    (2): Linear(in_features=56, out_features=7, bias=True)
  )
  (critic): Sequential(
    (0): Linear(in_features=57, out_features=56, bias=True)
    (1): Tanh()
    (2): Linear(in_features=56, out_features=1, bias=True)
  )
)

ACModel(
  (image_conv): Sequential(
    (0): Conv2d(3, 14, kernel_size=(2, 2), stride=(1, 1))
    (1): ReLU()
    (2): MaxPool2d(kernel_size=(2, 2), stride=(2, 2), padding=0, dilation=1, ceil_mode=False)
    (3): Conv2d(14, 28, kernel_size=(2, 2), stride=(1, 1))
    (4): ReLU()
    (5): Conv2d(28, 56, kernel_size=(2, 2), stride=(1, 1))
    (6): ReLU()
  )
  (actor): Sequential(
    (0): Linear(in_features=57, out_features=56, bias=True)
    (1): Tanh()
    (2): Linear(in_features=56, out_features=7, bias=True)
  )
  (critic): Sequential(
    (0): Linear(in_features=57, out_features=56, bias=True)
    (1): Tanh()
    (2): Linear(in_features=56, out_features=1, bias=True)
  )
)

Optimizer loaded

Optimizer loaded

U 1 | F 002048 | FPS 0688 | D 2 | rR:μσmM 0.00 0.00 0.00 0.00 | F:μσmM 0.0 0.0 0 0 | H 1.927 | V -0.043 | pL -0.008 | vL 0.000 | ∇ 0.015
U 1 | F 002048 | FPS 0674 | D 3 | rR:μσmM 0.00 0.00 0.00 0.00 | F:μσmM 0.0 0.0 0 0 | H 1.939 | V -0.240 | pL -0.045 | vL 0.001 | ∇ 0.027
U 1 | F 002048 | FPS 0669 | D 3 | rR:μσmM 0.00 0.00 0.00 0.00 | F:μσmM 0.0 0.0 0 0 | H 1.932 | V -0.038 | pL -0.005 | vL 0.001 | ∇ 0.021
…
